…
model definition cells were run multiple times\n","# keras.backend.clear_session()\n","\n","# Build model\n","model = get_model((224,224), (3))\n","model.summary()\n"],"execution_count":null,"outputs":[{"output_type":"stream","text":["Model: \"model_2\"\n","__________________________________________________________________________________________________\n","Layer (type)                    Output Shape         Param #     Connected to                     \n","==================================================================================================\n","input_27 (InputLayer)           [(None, 224, 224, 3) 0                                            \n","__________________________________________________________________________________________________\n","conv2d_11 (Conv2D)              (None, 112, 112, 32) 896         input_27[0][0]                   \n","__________________________________________________________________________________________________\n","batch_normalization_16 (BatchNo (None, 112, 112, 32) 128         conv2d_11[0][0]                  \n","__________________________________________________________________________________________________\n","activation_17 (Activation)      (None, 112, 112, 32) 0           batch_normalization_16[0][0]     \n","__________________________________________________________________________________________________\n","activation_18 (Activation)      (None, 112, 112, 32) 0           activation_17[0][0]              \n","__________________________________________________________________________________________________\n","separable_conv2d_7 (SeparableCo (None, 112, 112, 64) 2400        activation_18[0][0]              \n","__________________________________________________________________________________________________\n","batch_normalization_17 (BatchNo (None, 112, 112, 64) 256         separable_conv2d_7[0][0]         \n","__________________________________________________________________________________________________\n","activation_19 (Activation)      (None, 112, 112, 64) 0           batch_normalization_17[0][0]     \n","__________________________________________________________________________________________________\n","separable_conv2d_8 (SeparableCo (None, 112, 112, 64) 4736        activation_19[0][0]              \n","__________________________________________________________________________________________________\n","batch_normalization_18 (BatchNo (None, 112, 112, 64) 256         separable_conv2d_8[0][0]         \n","__________________________________________________________________________________________________\n","max_pooling2d_3 (MaxPooling2D)  (None, 56, 56, 64)   0           batch_normalization_18[0][0]     \n","__________________________________________________________________________________________________\n","conv2d_12 (Conv2D)              (None, 56, 56, 64)   2112        activation_17[0][0]              \n","__________________________________________________________________________________________________\n","add_7 (Add)                     (None, 56, 56, 64)   0           max_pooling2d_3[0][0]            \n","                                                                 conv2d_12[0][0]                  \n","__________________________________________________________________________________________________\n","activation_20 (Activation)      (None, 56, 56, 64)   0           add_7[0][0]                      \n","__________________________________________________________________________________________________\n","separable_conv2d_9 (SeparableCo (None, 56, 56, 128)  8896        activation_20[0][0]              \n","__________________________________________________________________________________________________\n","batch_normalization_19 (BatchNo (None, 56, 56, 128)  512         separable_conv2d_9[0][0]         \n","__________________________________________________________________________________________________\n","activation_21 (Activation)      (None, 56, 56, 128)  0           batch_normalization_19[0][0]     \n","__________________________________________________________________________________________________\n","separable_conv2d_10 (SeparableC (None, 56, 56, 128)  17664       activation_21[0][0]              \n","__________________________________________________________________________________________________\n","batch_normalization_20 (BatchNo (None, 56, 56, 128)  512         separable_conv2d_10[0][0]        \n","__________________________________________________________________________________________________\n","max_pooling2d_4 (MaxPooling2D)  (None, 28, 28, 128)  0           batch_normalization_20[0][0]     \n","__________________________________________________________________________________________________\n","conv2d_13 (Conv2D)              (None, 28, 28, 128)  8320        add_7[0][0]                      \n","__________________________________________________________________________________________________\n","add_8 (Add)                     (None, 28, 28, 128)  0           max_pooling2d_4[0][0]            \n","                                                                 conv2d_13[0][0]                  \n","__________________________________________________________________________________________________\n","activation_22 (Activation)      (None, 28, 28, 128)  0           add_8[0][0]                      \n","__________________________________________________________________________________________________\n","separable_conv2d_11 (SeparableC (None, 28, 28, 256)  34176       activation_22[0][0]              \n","__________________________________________________________________________________________________\n","batch_normalization_21 (BatchNo (None, 28, 28, 256)  1024        separable_conv2d_11[0][0]        \n","__________________________________________________________________________________________________\n","activation_23 (Activation)      (None, 28, 28, 256)  0           batch_normalization_21[0][0]     \n","__________________________________________________________________________________________________\n","separable_conv2d_12 (SeparableC (None, 28, 28, 256)  68096       activation_23[0][0]              \n","__________________________________________________________________________________________________\n","batch_normalization_22 (BatchNo (None, 28, 28, 256)  1024        separable_conv2d_12[0][0]        \n","__________________________________________________________________________________________________\n","max_pooling2d_5 (MaxPooling2D)  (None, 14, 14, 256)  0           batch_normalization_22[0][0]     \n","__________________________________________________________________________________________________\n","conv2d_14 (Conv2D)              (None, 14, 14, 256)  33024       add_8[0][0]                      \n","__________________________________________________________________________________________________\n","add_9 (Add)                     (None, 14, 14, 256)  0           max_pooling2d_5[0][0]            \n","                                                                 conv2d_14[0][0]                  \n","__________________________________________________________________________________________________\n","activation_24 (Activation)      (None, 14, 14, 256)  0           add_9[0][0]                      \n","__________________________________________________________________________________________________\n","conv2d_transpose_8 (Conv2DTrans (None, 14, 14, 256)  590080      activation_24[0][0]              \n","__________________________________________________________________________________________________\n","batch_normalization_23 (BatchNo (None, 14, 14, 256)  1024        conv2d_transpose_8[0][0]         \n","__________________________________________________________________________________________________\n","activation_25 (Activation)      (None, 14, 14, 256)  0           batch_normalization_23[0][0]     \n","__________________________________________________________________________________________________\n","conv2d_transpose_9 (Conv2DTrans (None, 14, 14, 256)  590080      activation_25[0][0]              \n","__________________________________________________________________________________________________\n","batch_normalization_24 (BatchNo (None, 14, 14, 256)  1024        conv2d_transpose_9[0][0]         \n","__________________________________________________________________________________________________\n","up_sampling2d_9 (UpSampling2D)  (None, 28, 28, 256)  0           add_9[0][0]                      \n","__________________________________________________________________________________________________\n","up_sampling2d_8 (UpSampling2D)  (None, 28, 28, 256)  0           batch_normalization_24[0][0]     \n","__________________________________________________________________________________________________\n","conv2d_15 (Conv2D)              (None, 28, 28, 256)  65792       up_sampling2d_9[0][0]            \n","__________________________________________________________________________________________________\n","add_10 (Add)                    (None, 28, 28, 256)  0           up_sampling2d_8[0][0]            \n","                                                                 conv2d_15[0][0]                  \n","__________________________________________________________________________________________________\n","activation_26 (Activation)      (None, 28, 28, 256)  0           add_10[0][0]                     \n","__________________________________________________________________________________________________\n","conv2d_transpose_10 (Conv2DTran (None, 28, 28, 128)  295040      activation_26[0][0]              \n","__________________________________________________________________________________________________\n","batch_normalization_25 (BatchNo (None, 28, 28, 128)  512         conv2d_transpose_10[0][0]        \n","__________________________________________________________________________________________________\n","activation_27 (Activation)      (None, 28, 28, 128)  0           batch_normalization_25[0][0]     \n","__________________________________________________________________________________________________\n","conv2d_transpose_11 (Conv2DTran (None, 28, 28, 128)  147584      activation_27[0][0]              \n","__________________________________________________________________________________________________\n","batch_normalization_26 (BatchNo (None, 28, 28, 128)  512         conv2d_transpose_11[0][0]        \n","__________________________________________________________________________________________________\n","up_sampling2d_11 (UpSampling2D) (None, 56, 56, 256)  0           add_10[0][0]                     \n","__________________________________________________________________________________________________\n","up_sampling2d_10 (UpSampling2D) (None, 56, 56, 128)  0           batch_normalization_26[0][0]     \n","__________________________________________________________________________________________________\n","conv2d_16 (Conv2D)              (None, 56, 56, 128)  32896       up_sampling2d_11[0][0]           \n","__________________________________________________________________________________________________\n","add_11 (Add)                    (None, 56, 56, 128)  0           up_sampling2d_10[0][0]           \n","                                                                 conv2d_16[0][0]                  \n","__________________________________________________________________________________________________\n","activation_28 (Activation)      (None, 56, 56, 128)  0           add_11[0][0]                     \n","__________________________________________________________________________________________________\n","conv2d_transpose_12 (Conv2DTran (None, 56, 56, 64)   73792       activation_28[0][0]              \n","__________________________________________________________________________________________________\n","batch_normalization_27 (BatchNo (None, 56, 56, 64)   256         conv2d_transpose_12[0][0]        \n","__________________________________________________________________________________________________\n","activation_29 (Activation)      (None, 56, 56, 64)   0           batch_normalization_27[0][0]     \n","__________________________________________________________________________________________________\n","conv2d_transpose_13 (Conv2DTran (None, 56, 56, 64)   36928       activation_29[0][0]              \n","__________________________________________________________________________________________________\n","batch_normalization_28 (BatchNo (None, 56, 56, 64)   256         conv2d_transpose_13[0][0]        \n","__________________________________________________________________________________________________\n","up_sampling2d_13 (UpSampling2D) (None, 112, 112, 128 0           add_11[0][0]                     \n","__________________________________________________________________________________________________\n","up_sampling2d_12 (UpSampling2D) (None, 112, 112, 64) 0           batch_normalization_28[0][0]     \n","__________________________________________________________________________________________________\n","conv2d_17 (Conv2D)              (None, 112, 112, 64) 8256        up_sampling2d_13[0][0]           \n","__________________________________________________________________________________________________\n","add_12 (Add)                    (None, 112, 112, 64) 0           up_sampling2d_12[0][0]           \n","                                                                 conv2d_17[0][0]                  \n","__________________________________________________________________________________________________\n","activation_30 (Activation)      (None, 112, 112, 64) 0           add_12[0][0]                     \n","__________________________________________________________________________________________________\n","conv2d_transpose_14 (Conv2DTran (None, 112, 112, 32) 18464       activation_30[0][0]              \n","__________________________________________________________________________________________________\n","batch_normalization_29 (BatchNo (None, 112, 112, 32) 128         conv2d_transpose_14[0][0]        \n","__________________________________________________________________________________________________\n","activation_31 (Activation)      (None, 112, 112, 32) 0           batch_normalization_29[0][0]     \n","__________________________________________________________________________________________________\n","conv2d_transpose_15 (Conv2DTran (None, 112, 112, 32) 9248        activation_31[0][0]              \n","__________________________________________________________________________________________________\n","batch_normalization_30 (BatchNo (None, 112, 112, 32) 128         conv2d_transpose_15[0][0]        \n","__________________________________________________________________________________________________\n","up_sampling2d_15 (UpSampling2D) (None, 224, 224, 64) 0           add_12[0][0]                     \n","__________________________________________________________________________________________________\n","up_sampling2d_14 (UpSampling2D) (None, 224, 224, 32) 0           batch_normalization_30[0][0]     \n","__________________________________________________________________________________________________\n","conv2d_18 (Conv2D)              (None, 224, 224, 32) 2080        up_sampling2d_15[0][0]           \n","__________________________________________________________________________________________________\n","add_13 (Add)                    (None, 224, 224, 32) 0           up_sampling2d_14[0][0]           \n","                                                                 conv2d_18[0][0]                  \n","__________________________________________________________________________________________________\n","conv2d_19 (Conv2D)              (None, 224, 224, 3)  867         add_13[0][0]                     \n","==================================================================================================\n","Total params: 2,058,979\n","Trainable params: 2,055,203\n","Non-trainable params: 3,776\n","__________________________________________________________________________________________________\n"],"name":"stdout"}]},{"cell_type":"code","metadata":{"id"
…
